codes/part_1/model/epoch_101.pth (torch, 112651 bytes, 50 tensors)

conv1.weight f4 [8, 1, 5, 5]
0.20553826 -0.3203727 -0.023311755 0.17672151 -0.22114608 0.34697923 -0.74704725 -0.17576562
-0.110851966 -0.16340263 0.5145909 0.41940352 0.20852901 0.39618894 -0.112375274 -0.1331933
-0.085447446 0.21744557 0.31243846 -0.26352212 -0.17195298 0.13838519 0.06795702 0.19656125
-0.13073054 0.28639084 -0.071115054 -0.027930541 0.082105 -0.37237382 -0.043336734 -0.2957184
-0.38297293 0.28523156 0.69004005 -0.1954584 -0.2760797 0.05792059 0.15532288 0.23514335
-0.013660791 -0.6932581 0.31473115 0.11206412 0.24586841 -0.47840697 0.22039539 -0.16438164
0.2240693 0.1570334 -0.8215573 -0.47778806 -0.45363212 -0.41134578 -0.07546114 0.41927928
0.18160157 0.36007077 0.38155538 0.15354878 0.18209484 -0.067307 -0.1090447 -0.06615645
-0.17434293 -0.102798 -0.008876303 0.053496037 0.060881335 0.040344168 0.039217763 -0.029933894
0.16561304 -0.084040195 0.113578565 0.17912808 -0.5818755 0.28344306 0.22291803 -0.022709599
0.21924292 0.014755291 -0.27612996 0.64722395 0.23957272 -0.21559496 -0.1587536 0.11464244
-0.14087944 -0.14438431 -0.005655189 0.23516226 0.20677543 -0.32652444 -0.5048074 -0.38880727
-0.32474187 0.08894836 0.22161688 0.1508489 0.17691442 0.122309044 0.32210717 0.69077367
0.17016056 -0.23117863 -0.122638084 -0.5305912 0.36793128 -0.21175092 -0.43478632 -0.024629073
0.058684982 -0.113069475 0.017372876 0.18589841 -0.0639126 -0.33657166 -0.7019733 -0.26557034
0.27237347 -0.20870547 0.11052268 -0.1960384 0.109232515 -0.21396932 -0.43831035 -0.4820674
0.114003114 0.14291807 0.26084304 0.33402088 0.6805058 0.02541525 -0.19388685 0.4157766
0.51575077 -0.47486717 0.0036993509 0.03435634 0.044902686 -0.22816278 0.19349188 -0.13874437
0.01660413 -0.22836563 -0.24690998 -0.0453284 0.01600363 0.020912731 0.17095757 0.003029295
-0.17356426 0.07558114 0.030040527 0.094004095 -0.084232904 -0.055213667 -0.5172965 0.10129918
-0.13747989 -0.2111597 -0.114791185 0.33013538 0.31077507 -0.45178813 -0.41284174 -0.021153016
-0.057321418 -0.1336339 0.17655084 0.53320533 0.19818704 -0.03939349 -0.13081881 -0.45365527
-0.5942293 -0.7214083 0.20266193 -0.21301623 0.20511179 0.009619754 -0.330825 0.35059157
-0.55337507 0.03772121 0.3384641 -0.36520806 -0.4042367 0.40643325 0.34248215 -0.3726952
0.5851342 0.5082964 0.21368508 0.22945282 -0.0063694264 0.133761 0.28851017 -0.6355327
00000000: 9f78 523e e407 a4be 4bf8 bebc 7cf6 343e
00000010: 1e74 62be 43a7 b13e 7d3e 3fbf e7fb 33be
00000020: 5b06 e3bd 0553 27be 3bbc 033f 0fbc d63e
00000030: a188 553e 47d9 ca3e 0225 e6bd d363 08be
00000040: 12ff aebd 0daa 5e3e eff7 9f3e 5fec 86be
00000050: 7114 30be d9b4 0d3e 0d2d 8b3d 5a47 493e
00000060: 3ade 05be d2a1 923e c5a4 91bd 97ce e4bc
00000070: ab26 a83d c8a7 bebe dc81 31bd 6768 97be
00000080: 0715 c4be df09 923e 77a6 303f 3f26 48be
00000090: 525a 8dbe 243e 6d3d f60c 1f3e 6bc9 703e
000000a0: 83d1 5fbc 5d79 31bf 7124 a13e e081 e53d
000000b0: eec4 7b3e c2f1 f4be 54af 613e a953 28be
000000c0: 6c72 653e 5dcd 203e 9451 52bf a3a0 f4be
000000d0: 7842 e8be ea9b d2be 5f8b 9abd c6ab d63e
000000e0: c3f5 393e 325b b83e 3a5b c33e e43b 1d3e
000000f0: 1277 3a3e 41d8 89bd d452 dfbd 087d 87bd
00000100: f486 32be c287 d2bd ea6d 11bc a91e 5b3d
00000110: b55e 793d ed3f 253d cea2 203d ed37 f5bc
00000120: 7796 293e 441d acbd e19b e83d 5a6d 373e
00000130: cbf5 14bf 731f 913e a044 643e 7b09 babc
00000140: 3781 603e 2dc0 713c e860 8dbe 78b0 253f
00000150: 8d52 753e edc4 5cbe 4e90 22be a8c9 ea3d
00000160: b342 10be 7bd9 13be 2a4f b9bb 60ce 703e
00000170: f0bc 533e 362e a7be 0f3b 01bf bf11 c7be
00000180: 9144 a6be 8f2a b63d 89ef 623e 2278 1a3e
00000190: 0e29 353e 2a7d fa3d 3beb a43e 8bd6 303f
000001a0: 923e 2e3e 17ba 6cbe ad29 fbbd d3d4 07bf
000001b0: 7d61 bc3e 3cd5 58be 509c debe e9c2 c9bc
000001c0: aa5f 703d f890 e7bd 9051 8e3c 275c 3e3e
000001d0: 9ce4 82bd 1f53 acbe 86b4 33bf d6f8 87be
000001e0: 8974 8b3e e3b6 55be b759 e23d 4abe 48be
000001f0: 4cb5 df3d c61a 5bbe 376a e0be 8ad1 f6be
00000200: 777a e93d 1d59 123e 388d 853e c904 ab3e
00000210: a135 2e3f a433 d03c 468a 46be ace0 d43e
00000220: 3e08 043f ca21 f3be cf70 723b 3cb9 0c3d
00000230: e1eb 373d 81a3 69be bc22 463e 0113 0ebe
00000240: 6205 883c aed8 69be f8d5 7cbe 46aa 39bd
00000250: 0b1a 833c 2d51 ab3c 800f 2f3e 2387 463b
00000260: d4ba 31be 49ca 9a3d 8d17 f63c 3885 c03d
00000270: 4d82 acbd ba27 62bd 8b6d 04bf f275 cf3d
00000280: 87c7 0cbe 403a 58be a417 ebbd 8107 a93e
00000290: e91d 9f3e c650 e7be fe5f d3be 1749 adbc
000002a0: ddc9 6abd 53d7 08be bec9 343e 2580 083f
000002b0: 8bf1 4a3e 115b 21bd 5ef5 05be 8145 e8be
000002c0: 691f 18bf 37ae 38bf 9c86 4f3e ed20 5abe
000002d0: d308 523e 2c9c 1d3c e561 a9be bd80 b33e
000002e0: fda9 0dbf 8e81 1a3d 2b4b ad3e 8dfc babe
000002f0: 1df8 cebe 0518 d03e d259 af3e e8d1 bebe
00000300: 5bcb 153f b61f 023f 43d0 5a3e aef5 6a3e
00000310: 9fb6 d0bb a5f8 083e 9bb7 933e 45b2 22bf

conv1.bias f4 [8]
-0.17567906 -0.07164983 -0.36310676 0.07673586 0.2042269 0.14156044 0.16275148 0.24308872
00000000: 36e5 33be 25bd 92bd 21e9 b9be b127 9d3d
00000010: db20 513e 38f5 103e 53a8 263e 40ec 783e

bn1.weight f4 [8]
1.1374598 0.96368015 0.9872389 0.74908346 0.9366163 1.2491606 1.0443795 0.77601016
00000000: 4898 913f beb3 763f b0bb 7c3f efc3 3f3f
00000010: 16c6 6f3f 7fe4 9f3f 3aae 853f 9aa8 463f

bn1.bias f4 [8]
-0.09564795 -0.021521384 -0.17893834 -0.073066466 0.04806911 0.080468185 0.0064888163 -0.10340935
00000000: 13e3 c3bd 9d4d b0bc 9d3b 37be dfa3 95bd
00000010: 1de4 443d 81cc a43d 23a0 d43b 48c8 d3bd

bn1.running_mean f4 [8]
0.2692459 0.4629398 0.19346717 0.33882472 0.5386652 0.28236926 0.35644716 0.6010627
00000000: 99da 893e 7206 ed3e 421c 463e 6f7a ad3e
00000010: f6e5 093f b492 903e 3e80 b63e 3fdf 193f

bn1.running_var f4 [8]
0.25510088 0.7640317 0.15833838 0.25714716 0.5023895 0.20035921 0.21126188 0.6485264
00000000: 959c 823e 9597 433f 7523 223e cba8 833e
00000010: 999c 003f f72a 4d3e 0955 583e d305 263f

conv2.weight f4 [16, 8, 3, 3]
-0.17846826 -0.098947175 0.20718013 0.08019798 -0.066845365 0.0020279486 -0.14183588 -0.45940962
-0.40073138 -0.07310785 0.36275807 0.10523492 0.12649705 0.021973358 0.21571009 0.20678051
0.19698599 0.04949844 -0.08125971 -0.085625924 -0.27035797 0.11717968 -0.054061886 -0.11138596
0.10606327 -0.0612865 -0.09779929 -0.016068188 0.31304178 0.22900206 -0.25389826 -0.14003457
-0.0641804 0.14576942 0.20970635 -0.033508055 -0.118060045 -0.34637046 -0.06925716 0.106520765
-0.060436822 -0.21477146 -0.086306706 0.15309587 -0.11275918 0.2972652 0.24764542 0.065170914
0.107213624 0.3167804 -0.046085957 -0.06532781 0.18173017 0.11389006 0.046931073 0.27080658
0.280825 -0.29130507 0.1984875 0.05145274 0.27452132 0.36711484 0.05680281 0.2601291
0.15150851 -0.24624266 0.18012598 0.15040547 0.123141214 -0.04511503 -0.39173496 0.17457788
-0.2342745 -0.13213126 -0.23457044 0.16820899 -0.096238315 -0.16164589 0.046155855 -0.037543133
0.13511871 0.04926507 0.023278037 -0.09803215 -0.041084446 0.019339943 -0.07180869 0.010473321
-0.4047875 -0.058604553 0.13741608 0.04228638 -0.2124003 -0.11098583 0.16993406 -0.049886532
-0.297996 -0.05527375 -0.34472215 0.102488376 0.1492528 0.05979263 -0.023184331 -0.28549206
0.16349214 0.1614069 -0.41361955 -0.2792412 -0.13444288 0.14518435 -0.06320185 0.025052652
0.24587356 0.17104292 0.07729109 0.11530975 0.19648686 -0.120111816 -0.20616585 -0.07665801
0.15440969 0.24483018 0.16471085 -0.39074874 -0.6097853 -0.062580995 0.17833865 -0.23127314
-0.01903488 0.13353787 0.20113996 0.33132434 0.1227079 0.009608007 0.027907345 -0.3027108
0.0066859145 0.015895823 -0.110132836 -0.2038513 -0.1968011 -0.07969574 0.27995807 0.16695675
0.059486017 -0.032903522 -0.006805567 0.05740681 0.38760743 0.40729174 0.042343784 0.21745971
0.036524557 0.15672976 -0.1933905 -0.116140224 -0.12690954 0.3968148 0.32382894 0.10056621
0.1703929 -0.22792669 -0.32772225 -0.33247083 0.043272596 -0.2949244 -0.20218441 -0.29590365
-0.0011792697 -0.046531 -0.30141902 0.3050028 0.0461037 0.23565872 0.20003338 0.27263513
-0.04675865 -0.24521585 0.11541491 -0.21254373 0.2629755 0.1896628 0.11314328 0.1982068
0.14920203 0.13264464 0.124531165 0.24120781 0.08781231 0.09370482 0.40220934 0.042122602
0.32415584 0.3033656 0.05009228 -0.20513503 -0.13685735 0.15686311 -0.15702905 -0.25083247
0.33128676 -0.12769434 -0.27150252 -0.02248319 -0.14987868 0.23457032 0.17234237 -0.16249616
-0.056880124 0.25395986 -0.019225363 0.0010710383 0.23439367 0.42159337 0.29319575 -0.05378469
-0.036183886 -0.22104828 0.24710904 0.24635266 0.23198463 0.037508164 0.26465514 0.11326944
-0.092652954 0.101408444 0.26220584 0.09990001 0.40111712 0.17461556 0.33873487 -0.16798724
-0.11739083 -0.13689247 -0.14254732 -0.19577771 -0.25634652 -0.1633387 -0.16000561 -0.105905235
0.06157759 0.2577657 0.06291966 -0.032561287 -0.015890948 -0.13975064 0.09910351 0.05246114
0.18681121 -0.26448467 -0.19037588 0.14994758 -0.15029143 0.0358953 0.07495722 0.16087952
00000000: 62c0 36be d1a4 cabd 0727 543e d73e a43d
00000010: 39e6 88bd 55e7 043b 6d3d 11be bd37 ebbe
00000020: aa2c cdbe 92b9 95bd 6dbb b93e 6885 d73d
00000030: 7188 013e 7901 b43c 1be3 5c3e 45be 533e
00000040: b2b6 493e e0be 4a3d 7e6b a6bd a55c afbd
00000050: 5c6c 8abe e6fb ef3d ff6f 5dbd 521e e4bd
00000060: b337 d93d 8e07 7bbd ff4a c8bd 6fa1 83bc
00000070: 0347 a03e 847f 6a3e f4fe 81be 3965 0fbe
00000080: 0371 83bd 9444 153e 43bd 563e be3f 09bd
00000090: 77c9 f1bd 7857 b1be b3d6 8dbd 8f27 da3d
000000a0: 9a8c 77bd 0ded 5bbe 92c1 b0bd 2ac5 1c3e
000000b0: 49ee e6bd 2533 983e c396 7d3e 5478 853d
000000c0: d192 db3d 0a31 a23e a1c4 3cbd 96ca 85bd
000000d0: 7917 3a3e 313f e93d cc3a 403d 29a7 8a3e
000000e0: 4bc8 8f3e f025 95be 4f40 4b3e 1cc0 523d
000000f0: 0f8e 8c3e 7af6 bb3e 10aa 683d a42f 853e
00000100: 0c25 1b3e 0927 7cbe f272 383e e403 1a3e
00000110: 7631 fc3d 8aca 38bd 7c91 c8be 8bc4 323e
00000120: a8e5 6fbe 6b4d 07be 3c33 70be fa3e 2c3e
00000130: 9818 c5bd 8086 25be ec0d 3d3d d4c6 19bd
00000140: 8f5c 0a3e 2cca 493d 95b1 be3c 14c5 c8bd
00000150: 2a48 28bd cd6e 9e3c 6f10 93bd 4b98 2b3c
00000160: 4f40 cfbe 540b 70bd cdb6 0c3e 7c34 2d3d
00000170: 777f 59be 8a4c e3bd 3203 2e3e d255 4cbd
00000180: ef92 98be ba66 62bd 6c7f b0be 6de5 d13d
00000190: bad5 183e 1ee9 743d 11ed bdbc 042c 92be
000001a0: 7c6a 273e da47 253e f1c5 d3be b4f8 8ebe
000001b0: 65ab 09be 35ab 143e f96f 81bd 383b cd3c
000001c0: 47c6 7b3e e025 2f3e ca4a 9e3d 8527 ec3d
000001d0: da33 493e 2ffd f5bd 241d 53be e0fe 9cbd
000001e0: 931d 1e3e c3b4 7a3e f6a9 283e 3810 c8be
000001f0: e41a 1cbf 772a 80bd 689e 363e ded2 6cbe
00000200: 09ef 9bbc 27be 083e a2f7 4d3e 58a3 a93e
00000210: 484e fb3d e76a 1d3c f29d e43c e9fc 9abe
00000220: 8415 db3b f537 823c 538d e1bd 65be 50be
00000230: 3a86 49be 8537 a3bd aa56 8f3e b6f6 2a3e
00000240: 9ca7 733d d8c5 06bd 3c01 dfbb 6723 6b3d
00000250: 7b74 c63e 8b88 d03e ad70 2d3d c2ad 5e3e
00000260: c69a 153d c47d 203e 2908 46be edda edbd
00000270: 93f4 01be 4f2b cb3e e8cc a53e a8f5 cd3d
00000280: 7a7b 2e3e 9d65 69be 36cb a7be 9e39 aabe
00000290: 9b3e 313d 5500 97be 6e09 4fbe af80 97be
000002a0: ba91 9aba 4a97 3ebd 9853 9abe 5429 9c3e
000002b0: 3cd7 3c3d 8550 713e 8dd5 4c3e d596 8b3e
000002c0: 0086 3fbd dd19 7bbe a75e ec3d 10a5 59be
000002d0: baa4 863e f736 423e aab7 e73d b9f6 4a3e
000002e0: 6bc8 183e ffd3 073e 320a ff3d 2eff 763e
000002f0: f1d6 b33d 50e8 bf3d 62ee cd3e c088 2c3d
00000300: c1f7 a53e bc52 9b3e 902d 4d3d eb0e 52be
00000310: 5524 0cbe b9a0 203e 39cc 20be 1d6d 80be
00000320: 6b9e a93e 4ec2 02be 6102 8bbe ab2e b8bc
00000330: cc79 19be 3433 703e 857a 303e 6565 26be
00000340: 22fb 68bd 0707 823e 827e 9dbc 1562 8c3a
00000350: e504 703e 16db d73e c11d 963e 564d 5cbd
00000360: 8e35 14bd 7b5a 62be 270a 7d3e df43 7c3e
00000370: 618d 6d3e 29a2 193d e180 873e cff9 e73d
00000380: d5c0 bdbd 3baf cf3d d83f 863e 6098 cc3d
00000390: 395f cd3e 6cce 323e a86e ad3e d904 2cbe
000003a0: 9a6a f0bd 8a2d 0cbe edf7 11be f479 48be
000003b0: da3f 83be 4342 27be 83d8 23be d8e4 d8bd
000003c0: c838 7c3d def9 833e 06dc 803d fc5e 05bd
000003d0: bc2d 82bc cb1a 0fbe c8f6 ca3d 7ee1 563d
000003e0: 704b 3f3e 896a 87be e5f1 42be dc8b 193e
000003f0: ffe5 19be f306 133d 2c83 993d 9abd 243e

conv2.bias f4 [16]
0.1530065 0.13818775 -0.052736796 -0.05839466 0.22248587 -0.12181625 -0.4598616 0.24882236
-0.08852769 -0.10201776 -0.06687713 -0.083371915 -0.17812236 0.103271775 0.029330008 0.268781
00000000: bcad 1c3e 1781 0d3e 8a02 58bd 3d2f 6fbd
00000010: 56d3 633e cc7a f9bd fb72 ebbe 4acb 7e3e
00000020: 014e b5bd b0ee d0bd e0f6 88bd e5be aabd
00000030: b565 36be 2780 d33d 7c45 f03c aa9d 893e

bn2.weight f4 [16]
0.85790277 0.77864313 1.0680946 0.956239 1.047578 0.8808854 1.0250982 0.9736848
0.94968295 0.9868391 1.0926031 1.0570444 0.93330616 1.0910438 1.0385036 0.8728727
00000000: 849f 5b3f 2855 473f 53b7 883f 14cc 743f
00000010: 0917 863f b581 613f 6b36 833f 6843 793f
00000020: 6c1e 733f 7da1 7c3f 6bda 8b3f 3b4d 873f
00000030: 27ed 6e3f 53a7 8b3f b0ed 843f 9674 5f3f

bn2.bias f4 [16]
-0.2508955 0.2524953 -0.013632852 0.008266492 -0.1792846 0.13442695 0.019173585 0.384345
-0.15696076 0.23817338 -0.1295151 0.18317695 0.43953422 -0.09144894 0.040727764 -0.17337076
00000000: 6075 80be 1047 813e 535c 5fbc 2e70 073c
00000010: 6296 37be 38a7 093e ec11 9d3c dec8 c43e
00000020: 52ba 20be b9e3 733e 9b9f 04be bd92 3b3e
00000030: a10a e13e 9549 bbbd 28d2 263d 1b88 31be

bn2.running_mean f4 [16]
0.8118309 0.9617087 0.7911031 0.5877545 1.1681865 1.0250112 0.29724067 1.310008
0.9269179 0.76200473 0.50650394 0.80630517 0.6535101 1.0141703 0.7050221 0.6422486
00000000: 26d4 4f3f 8b32 763f bc85 4a3f 1477 163f
00000010: 2387 953f 9133 833f ee2f 983e 58ae a73f
00000020: 7e4a 6d3f be12 433f 3eaa 013f 046a 4e3f
00000030: 704c 273f 55d0 813f 547c 343f 676a 243f

bn2.running_var f4 [16]
1.3764427 1.2039372 1.4490656 0.7956034 1.2730708 1.2091024 0.43081525 2.054157
1.2896504 1.0048746 0.8571511 1.4504539 1.4875096 2.4316695 1.3442329 0.6732955
00000000: 462f b03f 9d1a 9a3f fb7a b93f aaac 4b3f
00000010: fcf3 a23f dec3 9a3f d193 dc3e 4f77 0340
00000020: 4413 a53f bb9f 803f 416e 5b3f 79a8 b93f
00000030: b766 be3f 79a0 1b40 d30f ac3f 185d 2c3f

conv3.weight f4 [32, 16, 3, 3]
0.32290617 0.14761016 -0.055972844 0.36329105 0.38375187 0.16788495 0.1708314 0.019672256
0.16286275 -0.13455778 -0.16385221 -0.16844979 -0.050665256 0.00509996 0.2332449 -0.05037944
0.027975604 0.2610333 0.13554937 -0.036608446 0.029573703 0.3699484 0.026699495 0.16770168
0.07311107 -0.2929108 0.06948641 0.21936749 0.013830669 -0.32644716 0.17414287 0.2651817
-0.016916012 -0.007819015 -0.06984408 -0.088606566 0.30986744 -0.0948514 0.16490477 0.06899392
0.035131026 0.042361278 0.01792716 0.08548626 0.1905957 0.05539933 -0.19517678 0.09333153
0.13981202 -0.057931464 0.17920855 -0.00031466663 -0.113579 0.17246461 -0.08324842 -0.114127114
-0.07907376 0.15073651 0.40167537 -0.08780562 0.35129544 0.18209341 -0.14822355 0.035280522
0.14271852 0.11197378 0.17748871 0.1385267 -0.28897783 0.013014286 0.03206716 -0.17136358
-0.23744628 0.03082287 -0.018525092 0.12568651 0.085667156 0.028652608 -0.04176094 0.019525038
0.009813094 0.026499221 0.009919909 -0.059880827 -0.13917339 0.11476761 0.08809142 -0.095760524
0.19249973 0.22613478 0.18580876 0.3349615 0.5046436 0.09109158 -0.121021494 -0.14185575
0.08977553 0.015410497 -0.12330389 0.05720083 0.00047499273 0.053429842 0.16072358 0.099425055
-0.23689155 0.106369495 -0.21218064 -0.36614215 0.07483974 -0.24845622 -0.11262058 -0.05156105
0.23603174 -0.03710301 0.20018071 0.16755843 0.047262974 0.2593451 0.08128288 0.14578514
-0.07231136 0.016737927 -0.0133879995 -0.03673012 -0.08087421 -0.23261142 0.104958065 -0.20666894
-0.15782684 -0.08160371 -0.47581717 -0.37181506 -0.12413132 -0.11684072 0.061870176 -0.22713664
-0.053547997 -0.039312202 -0.025979884 0.062209543 0.027166022 0.36055332 0.028498221 -0.24399802
0.014420017 0.0143690845 0.1419668 -0.028529426 -0.0004269174 0.07252515 0.14761783 0.20865309
0.0858745 -0.42698354 -0.017193371 -0.20109244 0.27346808 0.13987722 0.1253017 -0.042199604
-0.008233264 -0.059179526 -0.26430103 -0.24443345 -0.28525504 -0.054225154 0.028330218 0.01222993
0.008340308 -0.15232314 -0.10076481 -0.0058357683 -0.295038 0.02827589 -0.05827917 0.21326467
0.07936442 0.029997105 0.14227854 0.21055369 -0.07935841 0.2057655 0.23095833 0.04891045
0.19212581 0.15031473 -0.14213945 -0.07147781 -0.097272225 -0.08961042 -0.073164634 -0.09834811
-0.051369257 0.048809126 0.012864326 0.15550622 0.17270611 0.2685848 0.11800247 0.063212104
0.017120322 -0.11599859 -0.41639808 -0.2946945 -0.051612664 0.044999294 0.034456484 0.006311867
-0.2477538 -0.24398068 0.012928052 -0.12077697 0.022593925 -0.14422294 0.0990562 -0.18946657
-0.025480986 0.075653926 -0.014205944 -0.060810186 -0.020950267 -0.08611125 0.15734805 0.2534272
-0.007510221 -0.19128965 -0.25652605 -0.25259438 0.038287252 0.19584018 0.11306096 -0.20716539
-0.6172659 -0.18385445 0.007622507 0.21626242 0.09482257 -0.072265446 0.2009242 -0.060483396
0.0090957135 0.0036316202 0.058362305 -0.18646868 -0.31247967 -0.44517046 0.0016446373 -0.3083853
-0.28123114 -0.035761613 -0.017671222 -0.034549017 -0.0771274 -0.06497765 -0.1357158 -0.06071193
00000000: f553 a53e 1e27 173e c843 65bd 4901 ba3e
00000010: 207b c43e 08ea 2b3e 6dee 2e3e b627 a13c
00000020: 7ec5 263e 84c9 09be e0c8 27be 1a7e 2cbe
00000030: 5f86 4fbd 911d a73b c0d7 6e3e ac5a 4ebd
00000040: 182d e53c 28a6 853e 74cd 0a3e bdf2 15bd
00000050: 8d44 f23c e069 bd3e e6b8 da3c fdb9 2b3e
00000060: 42bb 953d 68f8 95be e44e 8e3d dfa1 603e
00000070: 089a 623c 1524 a7be 8252 323e e5c5 873e
00000080: 7393 8abc 531b 00bc 6a0a 8fbd 5c77 b5bd
00000090: f2a6 9e3e 7341 c2bd ccdc 283e af4c 8d3d
000000a0: 8de5 0f3d 0583 2d3d fbdb 923c 6c13 af3d
000000b0: 852b 433e 68ea 623d 6cdc 47be 9a24 bf3d
000000c0: e22a 0f3e 8b49 6dbd 7282 373e d7f9 a4b9
000000d0: 1b9c e8bd 909a 303e 267e aabd 7abb e9bd
000000e0: 6cf1 a1bd ac5a 1a3e 65a8 cd3e 6fd3 b3bd
000000f0: ffdc b33e b276 3a3e eac7 17be 4f82 103d
00000100: ce24 123e 8252 e53d 9abf 353e f1d9 0d3e
00000110: e7f4 93be df39 553c db58 033d ef79 2fbe
00000120: 1e25 73be 3e80 fc3c efc1 97bc f7b3 003e
00000130: 4372 af3d e0b8 ea3c 850d 2bbd f9f2 9f3c
00000140: 19c7 203c e514 d93c 1d87 223c 9945 75bd
00000150: 7883 0ebe 480b eb3d 4669 b43d 181e c4bd
00000160: a61e 453e e08f 673e a744 3e3e 1380 ab3e
00000170: 5330 013f 398e ba3d 1eda f7bd a242 11be
00000180: 3cdc b73d 4f7c 7c3c c086 fcbd 6b4b 6a3d
00000190: 7208 f939 40d9 5a3d b994 243e 5d9f cb3d
000001a0: b393 72be 40d8 d93d e245 59be fc76 bbbe
000001b0: 9445 993d 4f6b 7ebe 9ea5 e6bd ae31 53bd
000001c0: 4eb2 713e 53f9 17bd 2cfc 4c3e 7094 2b3e
000001d0: d296 413d e2c8 843e a377 a63d b348 153e
000001e0: fa17 94bd fa1d 893c 5759 5bbc 5372 16bd
000001f0: 61a1 a5bd b031 6ebe 41f4 d63d 06a1 53be
00000200: 5c9d 21be d91f a7bd 4f9e f3be 8b5e bebe
00000210: 9038 febd 304a efbd 956b 7d3d 8296 68be
00000220: 2555 5bbd d505 21bd c4d3 d4bc 6fcf 7e3d
00000230: 478b de3c 729a b83e 1a75 e93c 9eda 79be
00000240: ef41 6c3c 4f6c 6b3c bf5f 113e 8bb6 e9bc
00000250: e2d3 dfb9 1188 943d 2129 173e 28a9 553e
00000260: f8de af3d 969d dabe 1dd9 8cbc 2deb 4dbe
00000270: 0204 8c3e f93b 0f3e 174f 003e 7ed9 2cbd
00000280: d0e4 06bc 3b66 72bd 7752 87be c34c 7abe
00000290: f30c 92be 321b 5ebd c614 e83c 0b60 483c
000002a0: caa5 083c 99fa 1bbe c85d cebd f939 bfbb
000002b0: 390f 97be d7a2 e73c 24b6 6ebd 0e62 5a3e
000002c0: d089 a23d 7dbc f53c 77b1 113e 639b 573e
000002d0: a986 a2bd 31b4 523e 5780 6c3e 5356 483d
000002e0: a1bc 443e 1bec 193e 018d 11be f562 92bd
000002f0: a936 c7bd ab85 b7bd 57d7 95bd bc6a c9bd
00000300: 9268 52bd 14ec 473d e5c4 523c 063d 1f3e
00000310: dfd9 303e f283 893e 47ab f13d 5975 813d
00000320: eb3f 8c3c ab90 edbd 2132 d5be 33e2 96be
00000330: cd67 53bd 2e51 383d 3e22 0d3d c7d3 ce3b
00000340: 2cb3 7dbe 12d6 79be 2ed0 533c eb59 f7bd
00000350: e516 b93c 2eaf 13be fadd ca3d 8603 42be
00000360: 80bd d0bc 72f0 9a3d 0cc0 68bc 1a14 79bd
00000370: e59f abbc 185b b0bd d91f 213e 36c1 813e
00000380: 4d18 f6bb 6fe1 43be 6257 83be 0d54 81be
00000390: 18d3 1c3d 548a 483e 818c e73d 2a23 54be
000003a0: 2305 1ebf 5744 3cbe 39c6 f93b e573 5d3e
000003b0: 5632 c23d e8ff 93bd 13bf 4d3e 70bd 77bd
000003c0: 3006 153c 7a00 6e3b 500d 6f3d a5f1 3ebe
000003d0: 56fd 9fbe 62ed e3be df90 d73a aee4 9dbe
000003e0: 87fd 8fbe c57a 12bd 3dc3 90bc 4583 0dbd
000003f0: f8f4 9dbd 0113 85bd 15f9 0abe 13ad 78bd

conv3.bias f4 [32]
-0.5255892 -0.103550814 0.0993811 0.17005865 -0.5099724 -0.2586133 -0.14872532 -0.6809605
0.013389844 -0.19801666 -0.32253164 -0.3514023 -0.28478163 -0.3780031 -0.10034341 -0.019270504
-0.10403191 -0.1768746 -0.4247728 -0.006969169 -0.42867932 -0.24717295 -0.45346463 -0.019519398
-0.29051563 0.015378179 -0.216622 -0.11930209 0.08726461 -0.6152306 0.00090678944 0.24861926
00000000: 048d 06bf 7312 d4bd 5188 cb3d db23 2e3e
00000010: 8d8d 02bf f668 84be 734b 18be 6d53 2ebf
00000020: 1461 5b3c e1c4 4abe de22 a5be 01eb b3be
00000030: e6ce 91be 9f89 c1be d980 cdbd 2ddd 9dbc
00000040: af0e d5bd 9d1e 35be d27b d9be a05d e4bb
00000050: db7b dbbe e81a 7dbe 842c e8be 25e7 9fbc
00000060: 77be 94be c2f4 7b3c 28d2 5dbe a754 f4bd
00000070: cab7 b23d c17f 1dbf 9cb5 6d3a 0c96 7e3e

bn3.weight f4 [32]
0.9552031 0.97695 0.952921 0.82193345 0.96034 0.96909446 1.0811154 1.0460706
0.98379296 0.91577363 0.91296977 1.0704236 1.0566711 0.94162244 1.0293887 1.244428
0.94143397 1.032951 0.88041085 1.0469177 0.9972092 0.9760349 1.0355852 0.8570779
0.99446124 1.0634608 1.008056 0.9927457 0.94448525 0.9371378 0.9678601 0.9920167
00000000: 3188 743f 6519 7a3f a1f2 733f 3b6a 523f
00000010: d8d8 753f 9316 783f fd61 8a3f a4e5 853f
00000020: dbd9 7b3f 2470 6a3f 63b8 693f a403 893f
00000030: 0041 873f 2b0e 713f 02c3 833f 6b49 9f3f
00000040: d101 713f bd37 843f 9b62 613f 6601 863f
00000050: 1a49 7f3f 6cdd 793f 0e8e 843f 7569 5b3f
00000060: 0395 7e3f 7c1f 883f fb07 813f 9524 7e3f
00000070: c9c9 713f 43e8 6f3f aec5 773f cef4 7d3f

bn3.bias f4 [32]
0.48105922 -0.12968521 -0.016959738 0.44073555 -0.17116717 0.12169862 -0.06238762 0.26180705
0.3197061 -0.07365026 0.43656135 0.02027801 -0.005587565 0.01849178 -0.11278593 0.08949696
0.032699388 0.18451723 0.23756912 -0.05351943 0.10925003 0.31499618 0.59850127 0.41980755
-0.3895883 0.019241458 0.039249327 -0.05566109 -0.1932431 0.053735323 0.21398596 0.033481695
00000000: 654d f63e 33cc 04be 26ef 8abc 17a8 e13e
00000010: 7246 2fbe 203d f93d 298a 7fbd 930b 863e
00000020: 85b0 a33e f3d5 96bd f884 df3e 121e a63c
00000030: e417 b7bb 137c 973c 4ffc e6bd 2f4a b73d
00000040: cbef 053d 16f2 3c3e 5245 733e 3137 5bbd
00000050: 7bbe df3d 2e47 a13e 6137 193f 04f1 d63e
00000060: 1e78 c7be 43a0 9d3c e7c3 203d e2fc 63bd
00000070: 85e1 45be 9219 5c3d 231f 5b3e 1a24 093d

bn3.running_mean f4 [32]
0.595057 0.3917481 0.47660664 0.5783833 0.27760044 0.34278995 0.6885144 0.31446782
1.1367111 0.5265568 0.7383852 0.5616025 0.57520676 0.4636087 0.94282275 0.75736773
0.68069106 0.5357529 0.51388794 0.5596144 0.3089921 0.44836885 1.6032946 0.7728824
0.6519919 0.36944494 0.6024562 0.6934992 0.5825929 0.29314342 0.45945698 0.93942666
00000000: a855 183f 3593 c83e c905 f43e ee10 143f
00000010: a521 8e3e 2a82 af3e 7b42 303f ed01 a13e
00000020: c07f 913f 6dcc 063f d006 3d3f 2ec5 0f3f
00000030: c040 133f 1f5e ed3e d55c 713f dae2 413f
00000040: c541 2e3f 1a27 093f 298e 033f e442 0f3f
00000050: 3634 9e3e 9a90 e53e c238 cd3f 9fdb 453f
00000060: f1e8 263f e327 bd3e 923a 1a3f 2a89 313f
00000070: cf24 153f e516 963e f23d eb3e 447e 703f

bn3.running_var f4 [32]
1.3918123 0.6853667 0.8099923 1.0171572 0.53463393 0.66283834 1.2510339 0.64099395
1.8665873 1.2226052 1.2606751 1.3674363 1.3503441 0.8147759 1.543076 1.2040156
1.1859834 1.1093823 1.1633303 0.97024 0.6462044 0.9354349 3.0022118 2.2846296
2.1295912 0.55747914 1.3647857 0.99325913 0.9957702 0.9185809 1.1246644 1.9230182
00000000: e826 b23f 3174 2f3f a85b 4f3f 3532 823f
00000010: c5dd 083f c6af 293f e121 a03f 2e18 243f
00000020: 55ec ee3f 547e 9c3f cd5d a13f 2708 af3f
00000030: 13d8 ac3f 2795 503f 8483 c53f 2f1d 9a3f
00000040: 4ece 973f 3d00 8e3f 02e8 943f a661 783f
00000050: a76d 253f a978 6f3f 3d24 4040 5f37 1240
00000060: 394b 0840 f4b6 0e3f 4cb1 ae3f 3b46 7e3f
00000070: ccea 7e3f 1e28 6b3f 01f5 8f3f 7625 f63f

conv4.weight f4 [64, 32, 3, 3]
-0.2576077 -0.046998296 -0.018907614 -0.36213917 -0.1808739 -0.18713424 0.044314984 0.0001263073
0.07411403 -0.11168441 -0.30813494 -0.14934702 0.0169953 0.19506374 0.16439301 0.025938028
-0.0031735357 0.08087343 0.032519504 0.17608234 0.16280663 -0.13963865 -0.0399713 -0.10573228
-0.23201452 -0.05480693 -0.094434515 -0.3331258 -0.16805367 0.026486382 -0.13172935 -0.39564094
-0.22959654 0.045332447 0.15703376 -0.2791854 0.084329695 0.18737663 0.10760157 0.10589117
0.08312623 0.08485493 0.1781872 -0.09231071 -0.1705349 -0.10383408 0.17851378 -0.23094676
0.0061944895 0.07029095 0.22589763 0.13057883 0.14691406 0.041483637 0.17402613 0.14600807
0.3173 0.03539404 -0.061127998 0.068855405 0.041424543 0.06755017 0.11903295 -0.02730353
-0.34403694 -0.16655357 -0.22249015 -0.11907247 -0.0023632022 -0.12076189 -0.0988119 -0.30817252
-0.3528897 -0.11373381 -0.060211845 -0.14282581 -0.1635039 -0.09680103 -0.031974576 -0.0105431015
-0.10430343 -0.3234315 -0.3903147 -0.268521 -0.08636938 -0.24598628 -0.28731877 -0.15600204
-0.033563036 -0.17486267 0.20138311 0.11465031 -0.032542996 -0.20529453 -0.0056313328 -0.07645884
-0.050689634 -0.12587605 0.15725702 0.066933736 0.14455606 0.19646887 0.082469665 0.08850125
0.096596316 0.096498385 -0.15440768 -0.4047531 -0.07804419 -0.07158246 0.062426183 -0.14678808
-0.24065953 -0.35244828 -0.17887919 -0.047894027 -0.021793032 -0.015125081 -0.10549608 -0.12196905
-0.0032896497 0.13289015 0.07090721 0.10910128 0.058621816 -0.08243927 0.077732496 0.018812347
0.19152258 0.06748958 -0.03053415 0.0346587 -0.00878932 -0.03362556 -0.13769738 0.18271689
0.32142216 -0.0024102682 -0.07641324 -0.11436694 -0.08406079 0.22565128 -0.049296178 -0.3073229
-0.03427476 0.014042854 -0.341386 -0.19754273 -0.11731201 -0.12905541 0.044072844 0.040828794
-0.0152428 0.26028147 -0.00026276254 0.003510688 0.057518627 -0.031601727 0.054230243 0.01759853
-0.0052198097 0.017066116 0.3250339 0.1830187 0.080714256 0.16461346 -0.16138977 0.11708599
-0.0018258288 0.11565441 0.08151717 -0.20989536 -0.29449782 -0.22212729 0.085379206 -0.066174224
-0.19582485 -0.05672572 -0.18330014 -0.20509279 -0.017496858 0.23431335 0.09384443 -0.010734957
-0.023134919 -0.10069522 -0.15908022 -0.17748383 0.035917506 -0.024552453 0.058524158 0.16167347
0.021578018 -0.0058363997 0.007385124 -0.008469571 0.089799926 -0.15413319 0.011627872 0.16554403
-0.025597597 0.114483 0.06777346 -0.04133124 0.018678263 -0.0695236 0.015127312 0.07066447
0.025794933 -0.004305394 0.04633045 -0.027910816 -0.1399942 0.07846585 0.009082216 0.020581087
0.030999416 0.0018271601 0.17600168 -0.17979905 -0.08399093 0.1506397 0.02780537 0.11810491
0.115383565 0.11952793 0.080865525 0.23174146 -0.09448198 -0.088673785 -0.25964615 0.15662837
0.22927237 0.2983481 -0.007053718 -0.054867376 -0.03409087 -0.064594805 -0.21438201 -0.1615334
0.041415032 -0.1699207 -0.15508148 0.06530651 0.03748345 -0.0546599 0.13043131 0.34544605
0.11936668 0.16655457 -0.0018896273 0.08949916 0.11745577 0.14426748 0.265845 -0.09028115
00000000: 28e5 83be 4981 40bd 24e4 9abc 4e6a b9be
00000010: 0237 39be 1ea0 3fbe a183 353d 5c71 0439
00000020: 19c9 973d ccba e4bd ddc3 9dbe 6dee 18be
00000030: ba39 8b3c cabe 473e a456 283e fd7b d43c
00000040: 18fb 4fbb f8a0 a53d 2c33 053d ee4e 343e
00000050: c8b6 263e 6ffd 0ebe f2b8 23bd 2a8a d8bd
00000060: 3795 6dbe 3b7d 60bd e266 c1bd 778f aabe
00000070: 4316 2cbe f8f9 d83c 0fe4 06be 7391 cabe
00000080: 5b1b 6bbe 84ae 393d 75cd 203e 64f1 8ebe
00000090: 0cb5 ac3d a9df 3f3e 365e dc3d 78dd d83d
000000a0: 163e aa3d 6cc8 ad3d b576 363e 660d bdbd
000000b0: b3a0 2ebe f6a6 d4bd 51cc 363e 4f7d 6cbe
000000c0: 25fb ca3b b4f4 8f3d b551 673e 75b6 053e
000000d0: a470 163e bfea 293d e833 323e 2483 153e
000000e0: 2575 a23e 57f9 103d 5a61 7abd 1004 8d3d
000000f0: c8ac 293d be57 8a3d 8cc7 f33d a7ab dfbc
00000100: 9c25 b0be 058d 2abe 75d4 63be 44dc f3bd
00000110: f4df 1abb 0352 f7bd e55d cabd cac8 9dbe
00000120: f5ad b4be 46ed e8bd b2a0 76bd ee40 12be
00000130: 916d 27be 9e3f c6bd c6f7 02bd f9bc 2cbc
00000140: 099d d5bd d098 a5be 54d7 c7be 967b 89be
00000150: 6ee2 b0bd d4e3 7bbe 721b 93be 00bf 1fbe
00000160: 6579 09bd 330f 33be 6037 4e3e c8cd ea3d
00000170: ce4b 05bd bb38 52be 0b87 b8bb 7496 9cbd
00000180: ef9f 4fbd a7e5 00be fc07 213e 8e14 893d
00000190: 8106 143e 232f 493e dbe5 a83d 2540 b53d
000001a0: 4ad4 c53d f2a0 c53d 0c1d 1ebe cc3b cfbe
000001b0: a2d5 9fbd d399 92bd 99b2 7f3d 9d4f 16be
000001c0: 746f 76be 1a74 b4be 1b2c 37be 872c 44bd
000001d0: 4d87 b2bc 30cf 77bc 540e d8bd e9ca f9bd
000001e0: 2a97 57bb 5b14 083e cd37 913d 7e70 df3d
000001f0: 6e1d 703d ecd5 a8bd 3732 9f3d 5a1c 9a3c
00000200: 7f1e 443e fa37 8a3d c122 fabc 48f6 0d3d
00000210: 1401 10bc f5ba 09bd 8b00 0dbe 231a 3b3e
00000220: 7291 a43e 97f5 1dbb 8b7e 9cbd 3739 eabd
00000230: 1028 acbd 2111 673e caea 49bd 6d59 9dbe
00000240: b163 0cbd 0014 663c 25ca aebe a448 4abe
00000250: 4741 f0bd 1a27 04be ba85 343d 183c 273d
00000260: f0bc 79bc 9d43 853e 64c3 89b9 9213 663b
00000270: a798 6b3d d070 01bd 8820 5e3d cb2a 903c
00000280: f00a abbb 3dce 8b3c d86a a63e 4169 3b3e
00000290: 844d a53d 6e90 283e 5c43 25be c8ca ef3d
000002a0: a650 efba 38dc ec3d 79f2 a63d cfee 56be
000002b0: 6bc8 96be 5675 63be 4bdb ae3d 5a86 87bd
000002c0: 4f86 48be 3b59 68bd 08b3 3bbe d803 52be
000002d0: 9255 8fbc d7ef 6f3e 8231 c03d ace1 2fbc
000002e0: 7185 bdbc 4c39 cebd ede5 22be 52be 35be
000002f0: 3c1e 133d 3a22 c9bc 07b7 6f3d bb8d 253e
00000300: 62c4 b03c 453f bfbb e9fe f13b f5c3 0abc
00000310: 06e9 b73d 17d5 1dbe d482 3e3c 6084 293e
00000320: 0db2 d1bc 1076 ea3d d0cc 8a3d f24a 29bd
00000330: 2803 993c 6462 8ebd 8cd8 773c 89b8 903d
00000340: e54f d33c 4314 8dbb ffc4 3d3d 39a5 e4bc
00000350: a45a 0fbe b4b2 a03d 93cd 143c ab99 a83c
00000360: 7df2 fd3c 527d ef3a c939 343e 3e1d 38be
00000370: 7003 acbd 4b41 1a3e 16c8 e33c fde0 f13d
00000380: 384e ec3d 0fcb f43d d39c a53d a24d 6d3e
00000390: c57f c1bd 9a9a b5bd 57f0 84be 3063 203e
000003a0: 60c6 6a3e 15c1 983e e022 e7bb 9dbc 60bd
000003b0: dea2 0bbd 484a 84bd f586 5bbe 0369 25be
000003c0: cfa2 293d b1ff 2dbe aecd 1ebe 6bbf 853d
000003d0: 3f88 193d 0fe3 5fbd c98f 053e 4ede b03e
000003e0: 8576 f43d 488d 2a3e 5fad f7ba 564b b73d
000003f0: a78c f03d dbba 133e d61c 883e 53e5 b8bd

conv4.bias f4 [64]
-0.0033510237 -0.3965147 -0.020391526 -0.017536366 0.15827052 -0.11269854 -0.06690061 -0.20594412
-0.022006093 -0.10595226 0.040833138 -0.14092073 -0.22263035 -0.31385925 -0.006694924 -0.18239784
-0.04619138 -0.042305782 -0.12144025 -0.13117643 -0.020466894 -0.079426944 0.04377887 0.07803309
-0.15858634 -0.05729778 -0.13062635 0.017835991 0.054443143 -0.5096851 -0.30025965 -0.056748454
-0.15276827 -0.3312244 -0.23043352 -0.13918208 -0.07807898 -0.1292938 -0.27568975 -0.018615818
0.21958639 -0.13952841 -0.048881337 -0.059933983 -0.20125629 0.07937827 -0.20430905 -0.28864947
-0.2097442 -0.05564651 -0.11823252 -0.27063614 0.024578128 -0.02485586 -0.26130277 -0.11884703
-0.038011692 -0.3163143 -0.17097837 -0.08755499 -0.33792096 -0.24186423 -0.022646427 0.101154566
00000000: d99c 5bbb fa03 cbbe 210c a7bc 6da8 8fbc
00000010: ab11 223e 7ece e6bd 3003 89bd 04e3 52be
00000020: 1f46 b4bc 80fd d8bd a640 273d 864d 10be
00000030: 36f9 63be 29b2 a0be 1861 dbbb 80c6 3abe
00000040: 2c33 3dbd d448 2dbd aab5 f8bd 1d53 06be
00000050: 30aa a7bc 98aa a2bd 7951 333d d0cf 9f3d
00000060: 7564 22be 14b1 6abd eac2 05be c91c 923c
00000070: c6ff 5e3d b97a 02bf a2bb 99be 1171 68bd
00000080: 496f 1cbe 3f96 a9be c4f6 6bbe bf85 0ebe
00000090: dfe7 9fbd 9865 04be 3527 8dbe 3380 98bc
000000a0: 41db 603e 89e0 0ebe cc37 48bd 567d 75bd
000000b0: 2116 4ebe 1391 a23d 6436 51be ddc9 93be
000000c0: 2fc7 56be 98ed 63bd e423 f2bd d290 8abe
000000d0: 1258 c93c 849e cbbc 7ac9 85be 1266 f3bd
000000e0: 26b2 1bbd f3f3 a1be f414 2fbe 0850 b3bd
000000f0: fa03 adbe 42ab 77be 0085 b9bc 202a cf3d

bn4.weight f4 [64]
2.0050051 2.1766846 2.2812583 2.0081768 2.1516404 2.2634156 2.184094 2.3943043
1.9108361 2.018352 2.5289066 2.212622 2.0847676 2.2508562 2.0776896 2.1099844
2.1762114 2.249001 2.2516282 2.2479925 2.1502664 2.039795 2.424677 2.1903605
2.3232424 2.0810723 2.3650343 2.2367964 2.2145727 2.3089144 2.3582048 2.2141347
2.0094206 2.2101626 2.1477518 1.7663294 2.0340185 2.2688255 2.19029 2.2502332
2.0589004 1.879309 1.9829475 2.3608816 2.1104844 1.957246 1.9725966 2.2767668
2.4682617 2.0887818 2.067779 1.727804 1.7497238 1.8662847 2.201284 2.248141
1.9383402 2.133172 2.0956028 2.2118611 1.9791752 2.258503 2.0678694 2.3699417
00000000: 0152 0040 cd4e 0b40 2300 1240 f885 0040
00000010: 7ab4 0940 cddb 1040 32c8 0b40 483c 1940
00000020: 4796 f43f ae2c 0140 9bd9 2140 999b 0d40
00000030: d56c 0540 070e 1040 def8 0440 fc09 0740
00000040: 0c47 0b40 a2ef 0f40 ad1a 1040 1cdf 0f40
00000050: f79d 0940 008c 0240 e82d 1b40 de2e 0c40
00000060: 01b0 1440 4a30 0540 b95c 1740 ac27 0f40
00000070: 8fbb 0d40 41c5 1340 d4ec 1640 62b4 0d40
00000080: 599a 0040 4e73 0d40 c474 0940 1517 e23f
00000090: 5c2d 0240 7034 1140 b62d 0c40 d203 1040
000000a0: 06c5 0340 338d f03f 39d1 fd3f af18 1740
000000b0: 2d12 0740 0987 fa3f 0c7e fc3f 8cb6 1140
000000c0: 00f8 1d40 9aae 0540 7e56 0440 ae28 dd3f
000000d0: f3f6 df3f 6be2 ee3f d6e1 0c40 8be1 0f40
000000e0: 881b f83f e485 0840 5b1e 0640 228f 0d40
000000f0: 9d55 fd3f 508b 1040 f957 0440 20ad 1740

bn4.bias f4 [64]
0.16480847 0.17546734 -0.20092735 0.098577484 0.25338247 -0.10840078 0.059128914 -0.07297961
0.057371657 -0.09326278 0.046750896 -0.17872241 -0.055668954 -0.10223614 0.17487447 -0.07757111
-0.098441824 -0.112451464 -0.052938245 0.0007503322 -0.14226256 0.11857092 0.0038795252 0.2110014
0.21049272 -0.055400837 0.05868411 -0.055414338 0.15490152 0.020954225 -0.096334115 -0.01838202
0.21279508 -0.052091952 -0.10721146 -0.07758238 -0.10514713 0.042406134 0.22604965 0.120291695
-0.17015006 -0.14054015 0.19682181 -0.051281445 0.18187064 0.23860955 -0.017914435 0.13789849
-0.0833376 -0.00072558736 0.18927956 -0.08739515 -0.04401136 -0.039104797 -0.0042280015 0.031671267
-0.085759096 0.10028328 -0.14832921 0.14770201 0.06621098 0.22518162 -0.029353332 -0.009959915
00000000: 8dc3 283e b6ad 333e e6bf 4dbe fee2 c93d
00000010: 59bb 813e 3a01 debd 2931 723d 5576 95bd
00000020: 8bfe 6a3d 8e00 bfbd de7d 3f3d 0203 37be
00000030: 2105 64bd 2e61 d1bd 4b12 333e 9add 9ebd
00000040: de9b c9bd f44c e6bd c6d5 58bd f1b1 443a
00000050: 47ad 11be 4fd5 f23d a23f 7e3b c010 583e
00000060: 678b 573e fdeb 62bd c05e 703d 25fa 62bd
00000070: 819e 1e3e 32a8 ab3c d24a c5bd e495 96bc
00000080: f4e6 593e 5f5e 55bd af91 dbbd 83e3 9ebd
00000090: 6157 d7bd 0eb2 2d3d 8f79 673e 7e5b f63d
000000a0: d13b 2ebe c2e9 0fbe a88b 493e 7e0c 52bd
000000b0: 4c3c 3a3e 1056 743e 4bc1 92bc 4335 0d3e
000000c0: e7ac aabd 5835 3eba 80d2 413e 3afc b2bd
000000d0: 4145 34bd 5a2c 20bd 0c8b 8abb bbb9 013d
000000e0: 77a2 afbd 5261 cd3d 9de3 17be 323f 173e
000000f0: 9f99 873d 0396 663e 6676 f0bc e92e 23bc

bn4.running_mean f4 [64]
0.61879236 0.06405025 0.9397639 0.7724538 0.8356635 0.83326435 0.3766556 0.24786918
1.1508538 0.4980873 0.85243547 0.8664488 0.5094532 1.4549237 0.2165896 0.69136786
0.4515173 0.34499747 0.80089515 0.3062554 0.54744536 0.96545595 0.89822704 0.7208658
0.37555888 0.32839713 0.22157791 1.1461581 0.36719033 0.37566158 0.096020356 0.6624235
0.34339234 0.4720837 0.96040833 0.9797865 1.2626344 0.38832808 0.43980128 0.5778143
1.0783328 0.887235 0.44204432 0.5595258 0.19857788 1.559725 0.4824483 0.30343497
0.92552 0.11562987 0.121037446 0.7543838 0.6409564 0.7086268 0.3223522 0.4204626
0.822538 0.16445449 0.39731374 0.5392421 0.3542365 0.5694432 0.38062215 0.42535084
00000000: 2d69 1e3f c72c 833d 5e94 703f 88bf 453f
00000010: 0bee 553f d050 553f 01d9 c03e 6bd1 7d3e
00000020: 2d4f 933f 4c05 ff3e 3639 5a3f 97cf 5d3f
00000030: 866b 023f f13a ba3f aac9 5d3e 7cfd 303f
00000040: 472d e73e 82a3 b03e 7707 4d3f 82cd 9c3e
00000050: 6125 0c3f 1f28 773f 35f2 653f a98a 383f
00000060: 4149 c03e ab23 a83e 52e5 623e 4fb5 923f
00000070: 5f00 bc3e b756 c03e 52a6 c43d 9694 293f
00000080: 1fd1 af3e f4b4 f13e 52dd 753f 4ad3 7a3f
00000090: 019e a13f f0d2 c63e a22d e13e a3eb 133f
000000a0: cf06 8a3f d521 633f a253 e23e 153d 0f3f
000000b0: 0058 4b3e 12a5 c73f 7703 f73e d45b 9b3e
000000c0: e1ee 6c3f 5acf ec3d 7be2 f73d 4c1f 413f
000000d0: b815 243f 9168 353f 590b a53e e046 d73e
000000e0: da91 523f c266 283e b56c cb3e c50b 0a3f
000000f0: 7d5e b53e 08c7 113f e8e0 c23e 96c7 d93e

bn4.running_var f4 [64]
1.2499573 0.106514044 2.3545775 1.8226141 2.5215108 2.0403428 0.9039382 0.61562407
3.680841 1.2791396 2.5533009 3.0868967 1.343956 5.2851725 0.50469035 1.6740088
1.1588569 0.76641786 2.1735368 0.79328 1.2044035 2.3888998 2.7041695 2.16322
0.91779804 0.66955596 0.52370656 3.3127503 0.8267508 1.123247 0.20116174 1.4992007
0.85231954 1.1435539 2.61045 3.006265 3.6976137 0.81541723 1.1657565 1.7037394
2.2926736 2.0897593 1.0010681 1.3009428 0.5493371 4.198042 1.2991259 0.7738614
2.8450367 0.20472717 0.23322971 1.7276454 1.2730179 1.868284 0.72031707 1.0059893
2.3383656 0.36874297 0.80037165 1.6467875 0.8228313 1.5664778 0.895066 1.0091903
00000000: 9afe 9f3f 0924 da3d 66b1 1640 6b4b e93f
00000010: 6f60 2140 fa94 0240 7e68 673f 8a99 1d3f
00000020: e692 6b40 d9ba a33f 4869 2340 b78f 4540
00000030: c006 ac3f 2220 a940 6333 013f ec45 d63f
00000040: 6c55 943f f633 443f 3a1b 0b40 6614 4b3f
00000050: e529 9a3f bce3 1840 1d11 2d40 3272 0a40
00000060: d0f4 6a3f 0568 2b3f a211 063f 1a04 5440
00000070: f1a5 533f 8fc6 8f3f 58fd 4d3e cfe5 bf3f
00000080: 9d31 5a3f f95f 923f 9d11 2740 a566 4040
00000090: b4a5 6c40 2fbf 503f 8237 953f 2214 da3f
000000a0: 2abb 1240 9ebe 0540 0023 803f 4b85 a63f
000000b0: 5ba1 0c3f 5c56 8640 c249 a63f c81b 463f
000000c0: 1515 3640 00a4 513e c5d3 6e3e 7c23 dd3f
000000d0: 40f2 a23f ee23 ef3f b366 383f 42c4 803f
000000e0: c8a7 1540 e1cb bc3e 28e5 4c3f efc9 d23f
000000f0: 12a5 523f 5882 c83f 0c23 653f 262d 813f

lin.weight f4 [6, 64]
-0.54377055 -0.9361493 -0.26693612 0.36364418 -0.87236905 -0.54672575 -0.7701992 -0.6118855
0.7260278 0.052619297 0.7679512 0.5446168 0.6287574 1.2794416 -0.6580741 0.44361869
-0.2953484 -0.33402905 0.5352103 -0.4923165 1.2189897 0.06978739 0.26707998 0.31502804
-0.7112476 -0.43960676 -0.82359046 0.58788055 -0.7251943 0.83001924 -0.42605257 0.5792
-0.75170386 0.9919796 0.8239611 0.11035149 1.0599935 -0.93549955 -0.4444889 0.47390726
0.76359534 0.3916824 -0.33977205 -0.68734527 -1.0587237 -0.4587146 0.63194734 -0.90924215
1.2996472 -0.41564336 -0.9740777 0.7866875 0.52793086 0.32136035 -0.59929967 0.008006788
0.7935434 -0.7006735 0.15884729 -0.3743325 0.05252675 -0.7982103 -0.6881719 -0.72221804
-0.22798924 -0.51526743 -0.4023511 0.044641342 0.1995422 -0.2899074 0.41527373 0.6461195
0.05566228 -0.78416085 0.43464434 0.0043382216 -0.4666106 0.010802962 -0.20252529 -0.4990835
-0.5416791 -0.4811456 -0.15425916 -0.6273815 -0.27955458 0.22953126 0.41029063 0.36296067
0.4064846 0.28276017 0.522365 -0.20452414 0.07753957 0.8613115 0.42370567 0.029883299
0.5285711 -0.8463975 0.041475393 -0.36579794 0.038671855 -0.70641893 0.32987237 0.2231289
-0.0038692008 0.13238189 0.55215126 -0.28548604 0.5055573 0.20139496 -0.7911722 0.771903
-0.015446825 0.64132327 0.7993932 0.31195533 -0.25452542 -0.7465065 0.6692359 0.30640125
-0.2249693 -0.7066195 -0.44702005 0.5050935 -0.68462366 0.16851746 0.5452535 -0.4902624
0.5377541 0.8223925 -0.11389968 0.46056572 0.41192794 -0.18671626 -0.81523335 -0.869691
0.3819077 0.3005706 0.07035366 -0.5798898 -0.0636163 -0.30206963 0.6142692 -0.27090865
-0.3308357 0.6088341 -0.3181874 0.058269825 0.09877818 0.37670124 0.36026984 0.22793531
0.2757492 -0.11859664 -0.8425966 -0.27855074 0.14693451 -0.3763345 -0.7199497 -0.2882925
-0.2762173 0.5317043 -0.59522796 0.36485046 -0.11632254 0.4269569 0.3873755 0.5746243
-0.25457 -0.28771776 0.053820074 0.42046785 -0.35365498 0.33720025 0.59987086 -0.045541037
-0.39055794 -0.8060754 -0.49691415 -0.2621348 0.40534633 0.554993 -0.49373996 -0.7738731
0.43616402 0.6886974 0.3456699 -0.027822828 0.8335581 0.5257477 -0.8729807 -0.3656584
-0.9236835 0.12350303 0.5790552 -1.0834088 0.024760228 0.995654 0.5934882 -0.43796813
-0.8529904 0.1366269 0.6565726 0.9393566 -0.2253283 0.8080613 0.4011962 0.37549442
0.97341365 0.19752565 -0.46494067 1.0136186 -0.4706714 -0.7662335 0.26074156 -1.1635239
0.07652231 -0.5361483 -0.2426349 -0.5160689 0.7484421 0.18305904 -0.1757911 1.0114146
-0.29868677 0.35305446 -0.21461046 0.41210386 -0.4867796 -0.1817884 -0.8493057 -0.081126004
-0.30158848 0.050075836 -0.93770546 -0.62774134 -0.28025627 -0.53401583 -0.23376282 -1.1007643
0.888278 0.5156336 0.10883049 -0.3921861 -0.5214258 -0.09291485 0.62116486 -0.35764822
-0.33657813 0.7442805 0.60067105 0.32028213 -0.00036644377 0.009553023 0.42488813 0.2709564
00000000: 8c34 0bbf 7ba7 6fbf daab 88be 922f ba3e
00000010: 9453 5fbf 38f6 0bbf c62b 45bf 87a4 1cbf
00000020: f5dc 393f 5587 573d 7398 443f 026c 0b3f
00000030: 3ff6 203f bec4 a33f 8b77 28bf fd21 e33e
00000040: e837 97be db05 abbe 8b03 093f e910 fcbe
00000050: db07 9c3f b1ec 8e3d b5be 883e 5b4b a13e
00000060: 5314 36bf 2314 e1be d3d6 52bf 577f 163f
00000070: 55a6 39bf 247c 543f 9023 dabe 7446 143f
00000080: aa6f 40bf 60f2 7d3f 1def 523f f6ff e13d
00000090: dead 873f e67c 6fbf 0d94 e3be f9a3 f23e
000000a0: fc7a 433f 988a c83e 9af6 adbe dcf5 2fbf
000000b0: 4284 87bf a4dc eabe 4dc7 213f 18c4 68bf
000000c0: d75a a63f 35cf d4be 285d 79bf 5a64 493f
000000d0: 7a26 073f 5889 a43e b46b 19bf e72e 033c
000000e0: a925 4b3f 575f 33bf dda8 223e 82a8 bfbe
000000f0: 4a26 573d 8357 4cbf 092c 30bf 48e3 38bf
00000100: 0376 69be 91e8 03bf f700 cebe d7d9 363d
00000110: ca54 4c3e be6e 94be c29e d43e 1668 253f
00000120: 22fe 633d c4be 48bf b489 de3e a427 8e3b
00000130: 96e7 eebe e8fe 303c ca62 4fbe df87 ffbe
00000140: 7bab 0abf b758 f6be 1df6 1dbe 139c 20bf
00000150: c721 8fbe 3e0a 6b3e 9d11 d23e fbd5 b93e
00000160: c01e d03e f1c5 903e b6b9 053f c76e 51be
00000170: 11cd 9e3d e97e 5c3f f3ef d83e d2cd f43c
00000180: 7050 073f 82ad 58bf 1ae2 293d de49 bbbe
00000190: 6166 1e3d dfd7 34bf 08e5 a83e e77b 643e
000001a0: 6b92 7dbb 1e8f 073e c959 0d3f 3a2b 92be
000001b0: 346c 013f 7b3a 4e3e 438a 4abf 6f9b 453f
000001c0: ae14 7dbc c32d 243f 08a5 4c3f 9cb8 9f3e
000001d0: 2851 82be 0d1b 3fbf 0b53 2b3f a0e0 9c3e
000001e0: 5a5e 66be 04e5 34bf d0df e4be cf4d 013f
000001f0: 7f43 2fbf d78f 2c3e bc95 0b3f ac03 fbbe
00000200: 41aa 093f 5188 523f 3c44 e9bd 45cf eb3e
00000210: 38e8 d23e 8c32 3fbe 22b3 50bf 12a4 5ebf
00000220: 6889 c33e 64e4 993e 9415 903d a873 14bf
00000230: 4349 82bd dfa8 9abe bf40 1d3f 8ab4 8abe
00000240: 4c63 a9be 8ddc 1b3f 75e9 a2be 57ac 6e3d
00000250: 374c ca3d fcde c03e 4a75 b83e e067 693e
00000260: 002f 8d3e cce2 f2bd 69b4 57bf 349e 8ebe
00000270: 0076 163e eaae c0be a04e 38bf 139b 93be
00000280: 5b6c 8dbe c61d 083f dc60 18bf aecd ba3e
00000290: 833a eebd 189a da3e 1556 c63e 941a 133f
000002a0: 0057 82be be4f 93be 7072 5c3d 9047 d73e
000002b0: 4412 b5be 83a5 ac3e 2391 193f 3d89 3abd
000002c0: 36f7 c7be f55a 4ebf 886b febe 8836 86be
000002d0: 8e89 cf3e 0514 0e3f 7ccb fcbe 8c1c 46bf
000002e0: e450 df3e 794e 303f a5fb b03e b3ec e3bc
000002f0: 1064 553f 6797 063f aa7b 5fbf 9437 bbbe
00000300: 8676 6cbf 28ef fc3d f63c 143f 24ad 8abf
00000310: f6d5 ca3c 2ee3 7e3f d8ee 173f 5c3d e0be
00000320: 945d 5abf ece7 0b3e 2415 283f ad79 703f
00000330: 76bc 66be 1bdd 4e3f 9769 cd3e ce40 c03e
00000340: a331 793f 2a44 4a3e b40c eebe 41be 813f
00000350: d7fb f0be e127 44bf eb7f 853e 5aee 94bf
00000360: bbb7 9c3d 0441 09bf 4975 78be 171d 04bf
00000370: e799 3f3f d473 3b3e 9502 34be 0976 813f
00000380: 79ed 98be 8ec3 b43e d8c2 5bbe 47ff d23e
00000390: 2d3b f9be bd26 3abe 196c 59bf 6425 a6bd
000003a0: ce69 9abe 521c 4d3d 770d 70bf a8b3 20bf
000003b0: c07d 8fbe 43b5 08bf 855f 6fbe d8e5 8cbf
000003c0: 3066 633f 9000 043f 85e2 de3d 9ecc c8be
000003d0: 297c 05bf 244a bebd a904 1f3f ab1d b7be
000003e0: f853 acbe 2b89 3e3f 94c5 193f 05fc a33e
000003f0: 401f c0b9 4884 1c3c f08a d93e ccba 8a3e

lin.bias f4 [6]
-0.23593736 0.14944322 0.16005617 -0.0960068 -0.20095499 0.050098177
00000000: 9099 71be a507 193e c4e5 233e 379f c4bd
00000010: 25c7 4dbe bf33 4d3d

conv.0.weight f4 [8, 1, 5, 5]
0.20553826 -0.3203727 -0.023311755 0.17672151 -0.22114608 0.34697923 -0.74704725 -0.17576562
-0.110851966 -0.16340263 0.5145909 0.41940352 0.20852901 0.39618894 -0.112375274 -0.1331933
-0.085447446 0.21744557 0.31243846 -0.26352212 -0.17195298 0.13838519 0.06795702 0.19656125
-0.13073054 0.28639084 -0.071115054 -0.027930541 0.082105 -0.37237382 -0.043336734 -0.2957184
-0.38297293 0.28523156 0.69004005 -0.1954584 -0.2760797 0.05792059 0.15532288 0.23514335
-0.013660791 -0.6932581 0.31473115 0.11206412 0.24586841 -0.47840697 0.22039539 -0.16438164
0.2240693 0.1570334 -0.8215573 -0.47778806 -0.45363212 -0.41134578 -0.07546114 0.41927928
0.18160157 0.36007077 0.38155538 0.15354878 0.18209484 -0.067307 -0.1090447 -0.06615645
-0.17434293 -0.102798 -0.008876303 0.053496037 0.060881335 0.040344168 0.039217763 -0.029933894
0.16561304 -0.084040195 0.113578565 0.17912808 -0.5818755 0.28344306 0.22291803 -0.022709599
0.21924292 0.014755291 -0.27612996 0.64722395 0.23957272 -0.21559496 -0.1587536 0.11464244
-0.14087944 -0.14438431 -0.005655189 0.23516226 0.20677543 -0.32652444 -0.5048074 -0.38880727
-0.32474187 0.08894836 0.22161688 0.1508489 0.17691442 0.122309044 0.32210717 0.69077367
0.17016056 -0.23117863 -0.122638084 -0.5305912 0.36793128 -0.21175092 -0.43478632 -0.024629073
0.058684982 -0.113069475 0.017372876 0.18589841 -0.0639126 -0.33657166 -0.7019733 -0.26557034
0.27237347 -0.20870547 0.11052268 -0.1960384 0.109232515 -0.21396932 -0.43831035 -0.4820674
0.114003114 0.14291807 0.26084304 0.33402088 0.6805058 0.02541525 -0.19388685 0.4157766
0.51575077 -0.47486717 0.0036993509 0.03435634 0.044902686 -0.22816278 0.19349188 -0.13874437
0.01660413 -0.22836563 -0.24690998 -0.0453284 0.01600363 0.020912731 0.17095757 0.003029295
-0.17356426 0.07558114 0.030040527 0.094004095 -0.084232904 -0.055213667 -0.5172965 0.10129918
-0.13747989 -0.2111597 -0.114791185 0.33013538 0.31077507 -0.45178813 -0.41284174 -0.021153016
-0.057321418 -0.1336339 0.17655084 0.53320533 0.19818704 -0.03939349 -0.13081881 -0.45365527
-0.5942293 -0.7214083 0.20266193 -0.21301623 0.20511179 0.009619754 -0.330825 0.35059157
-0.55337507 0.03772121 0.3384641 -0.36520806 -0.4042367 0.40643325 0.34248215 -0.3726952
0.5851342 0.5082964 0.21368508 0.22945282 -0.0063694264 0.133761 0.28851017 -0.6355327
00000000: 9f78 523e e407 a4be 4bf8 bebc 7cf6 343e
00000010: 1e74 62be 43a7 b13e 7d3e 3fbf e7fb 33be
00000020: 5b06 e3bd 0553 27be 3bbc 033f 0fbc d63e
00000030: a188 553e 47d9 ca3e 0225 e6bd d363 08be
00000040: 12ff aebd 0daa 5e3e eff7 9f3e 5fec 86be
00000050: 7114 30be d9b4 0d3e 0d2d 8b3d 5a47 493e
00000060: 3ade 05be d2a1 923e c5a4 91bd 97ce e4bc
00000070: ab26 a83d c8a7 bebe dc81 31bd 6768 97be
00000080: 0715 c4be df09 923e 77a6 303f 3f26 48be
00000090: 525a 8dbe 243e 6d3d f60c 1f3e 6bc9 703e
000000a0: 83d1 5fbc 5d79 31bf 7124 a13e e081 e53d
000000b0: eec4 7b3e c2f1 f4be 54af 613e a953 28be
000000c0: 6c72 653e 5dcd 203e 9451 52bf a3a0 f4be
000000d0: 7842 e8be ea9b d2be 5f8b 9abd c6ab d63e
000000e0: c3f5 393e 325b b83e 3a5b c33e e43b 1d3e
000000f0: 1277 3a3e 41d8 89bd d452 dfbd 087d 87bd
00000100: f486 32be c287 d2bd ea6d 11bc a91e 5b3d
00000110: b55e 793d ed3f 253d cea2 203d ed37 f5bc
00000120: 7796 293e 441d acbd e19b e83d 5a6d 373e
00000130: cbf5 14bf 731f 913e a044 643e 7b09 babc
00000140: 3781 603e 2dc0 713c e860 8dbe 78b0 253f
00000150: 8d52 753e edc4 5cbe 4e90 22be a8c9 ea3d
00000160: b342 10be 7bd9 13be 2a4f b9bb 60ce 703e
00000170: f0bc 533e 362e a7be 0f3b 01bf bf11 c7be
00000180: 9144 a6be 8f2a b63d 89ef 623e 2278 1a3e
00000190: 0e29 353e 2a7d fa3d 3beb a43e 8bd6 303f
000001a0: 923e 2e3e 17ba 6cbe ad29 fbbd d3d4 07bf
000001b0: 7d61 bc3e 3cd5 58be 509c debe e9c2 c9bc
000001c0: aa5f 703d f890 e7bd 9051 8e3c 275c 3e3e
000001d0: 9ce4 82bd 1f53 acbe 86b4 33bf d6f8 87be
000001e0: 8974 8b3e e3b6 55be b759 e23d 4abe 48be
000001f0: 4cb5 df3d c61a 5bbe 376a e0be 8ad1 f6be
00000200: 777a e93d 1d59 123e 388d 853e c904 ab3e
00000210: a135 2e3f a433 d03c 468a 46be ace0 d43e
00000220: 3e08 043f ca21 f3be cf70 723b 3cb9 0c3d
00000230: e1eb 373d 81a3 69be bc22 463e 0113 0ebe
00000240: 6205 883c aed8 69be f8d5 7cbe 46aa 39bd
00000250: 0b1a 833c 2d51 ab3c 800f 2f3e 2387 463b
00000260: d4ba 31be 49ca 9a3d 8d17 f63c 3885 c03d
00000270: 4d82 acbd ba27 62bd 8b6d 04bf f275 cf3d
00000280: 87c7 0cbe 403a 58be a417 ebbd 8107 a93e
00000290: e91d 9f3e c650 e7be fe5f d3be 1749 adbc
000002a0: ddc9 6abd 53d7 08be bec9 343e 2580 083f
000002b0: 8bf1 4a3e 115b 21bd 5ef5 05be 8145 e8be
000002c0: 691f 18bf 37ae 38bf 9c86 4f3e ed20 5abe
000002d0: d308 523e 2c9c 1d3c e561 a9be bd80 b33e
000002e0: fda9 0dbf 8e81 1a3d 2b4b ad3e 8dfc babe
000002f0: 1df8 cebe 0518 d03e d259 af3e e8d1 bebe
00000300: 5bcb 153f b61f 023f 43d0 5a3e aef5 6a3e
00000310: 9fb6 d0bb a5f8 083e 9bb7 933e 45b2 22bf

conv.0.bias f4 [8]
-0.17567906 -0.07164983 -0.36310676 0.07673586 0.2042269 0.14156044 0.16275148 0.24308872
00000000: 36e5 33be 25bd 92bd 21e9 b9be b127 9d3d
00000010: db20 513e 38f5 103e 53a8 263e 40ec 783e

conv.2.weight f4 [8]
1.1374598 0.96368015 0.9872389 0.74908346 0.9366163 1.2491606 1.0443795 0.77601016
00000000: 4898 913f beb3 763f b0bb 7c3f efc3 3f3f
00000010: 16c6 6f3f 7fe4 9f3f 3aae 853f 9aa8 463f

conv.2.bias f4 [8]
-0.09564795 -0.021521384 -0.17893834 -0.073066466 0.04806911 0.080468185 0.0064888163 -0.10340935
00000000: 13e3 c3bd 9d4d b0bc 9d3b 37be dfa3 95bd
00000010: 1de4 443d 81cc a43d 23a0 d43b 48c8 d3bd

conv.2.running_mean f4 [8]
0.2692459 0.4629398 0.19346717 0.33882472 0.5386652 0.28236926 0.35644716 0.6010627
00000000: 99da 893e 7206 ed3e 421c 463e 6f7a ad3e
00000010: f6e5 093f b492 903e 3e80 b63e 3fdf 193f

conv.2.running_var f4 [8]
0.25510088 0.7640317 0.15833838 0.25714716 0.5023895 0.20035921 0.21126188 0.6485264
00000000: 959c 823e 9597 433f 7523 223e cba8 833e
00000010: 999c 003f f72a 4d3e 0955 583e d305 263f
